data.pth (torch, 6815 bytes, 6 tensors)

l1.weight f4 [8, 79]
000000 44 2f 87 be a4 25 4e be a0 13 84 3d 90 d9 0a 3f
       -0.26403248 -0.20131546 0.06449056 0.54238224
000010 34 fe 16 bf bb 8f 76 3e b8 a7 b6 be d6 0d 99 bd
       -0.58981633 0.24078266 -0.35674834 -0.07473342
000020 c2 e4 11 3f c3 ec 1e bf 05 da 83 b9 85 42 96 3e
       0.5698968 -0.6208002 -0.00025148704 0.29347625
000030 63 bf 26 3f b2 1d d9 bd 60 25 b5 3e 88 1e ae be
       0.6513578 -0.10601367 0.35380077 -0.34007668
000040 e3 a7 b5 3e 46 83 eb 3e 10 34 ff 3e 8f 6f 41 bd
       0.3547965 0.4599859 0.49844408 -0.04722553
000050 46 c3 58 be c5 a3 04 bf d2 95 0c 3e e4 be 8f be
       -0.21168241 -0.5181239 0.13729027 -0.28075325
000060 b8 ec 1e bf da db 0b 3f 2c c4 1c bf 8b 3d de bd
       -0.62079954 0.5463234 -0.61236835 -0.10851582
000070 09 f3 1e bf 7c f0 1e bf 76 ce 63 3f 09 8e 6b bf
       -0.6208959 -0.620857 0.8898691 -0.92013603
000080 ad 52 fa be 65 fc 69 3d 2b 72 4b 3f a0 eb 88 be
       -0.48891202 0.057125468 0.7947108 -0.26742268
000090 8c f7 d8 3e 33 91 c6 bd 4c a5 92 3e 93 e1 58 be
       0.42376363 -0.09695663 0.28641737 -0.211798
0000a0 20 aa bf be b0 71 4f 3f 22 a6 7c bd 6a 25 b5 be
       -0.37434483 0.8103285 -0.061681874 -0.35380107
0000b0 7c 6d e7 3e 55 dd d3 3c a7 e9 0b 3f 92 ce 23 3f
       0.45200717 0.025862375 0.546534 0.63987076
0000c0 8e e0 13 3e c6 f4 de 3e b1 b5 1f 3f 52 9c 5e be
       0.1444113 0.43546122 0.62386614 -0.21739319
0000d0 df c3 4c 3f 58 14 8d 3e b6 2a bb 3e d8 4f 52 3f
       0.79986376 0.27554584 0.36556023 0.8215308
0000e0 a8 01 bf be 48 b7 8a 3f d3 88 0f 3e 76 67 9c 3e
       -0.3730595 1.0837183 0.14017038 0.30547684
0000f0 e8 84 00 be ce f6 4b 3f e5 52 0d 3f 52 a7 1d 3f
       -0.125507 0.7967347 0.5520461 0.61583436
000100 83 15 e5 be 0a 30 25 bf 0e b8 7e be 30 89 b6 3c
       -0.44742975 -0.64526427 -0.24874899 0.022282213
000110 03 cd 02 3f 1c 64 43 bd 64 3c 07 bf a0 b7 08 3f
       0.51094073 -0.047702894 -0.52826524 0.5340519
000120 7c 08 7c be 58 e8 10 bf 45 df c3 3e 6c 79 20 3e
       -0.24612612 -0.5660453 0.3825628 0.15671319
000130 fa f3 d6 3e 09 74 01 3e 9f d1 22 3e 74 16 4e be
       0.41983014 0.1264192 0.15900277 -0.20125753
000140 18 65 e8 3d fb 83 aa be f7 93 99 be f4 cd 3b 3f
       0.11347407 -0.33303818 -0.299957 0.73361135
000150 d7 ed 98 3f 19 d7 fc 3e ba df 88 3e 44 9e c3 be
       1.1947583 0.49382856 0.2673319 -0.38206685
000160 b1 24 ce bd c5 46 08 3f e0 75 af 3d 5d e9 f4 bd
       -0.10065592 0.53232986 0.08567405 -0.11958573
000170 bf 10 cf 3e 7b 37 15 3e 7f 33 0d 3f f9 99 e3 be
       0.40442464 0.14571945 0.551567 -0.4445341
000180 7e 38 2b 3e f3 21 bf be 2a b8 8a 3e 60 e2 05 3f
       0.16720769 -0.3733059 0.2709363 0.52298546
000190 15 a2 a7 be c0 11 ea be cb cd 21 3f 61 8f 00 be
       -0.32740846 -0.45716667 0.6320464 -0.12554695
0001a0 66 15 9b bd 82 8b 1a 3f 1a 79 25 be ec f7 23 3f
       -0.07572441 0.6036912 -0.16159478 0.64050174
0001b0 89 ea 25 3f f7 9d 05 3f cf 85 63 be b9 59 05 3f
       0.64811 0.5219416 -0.22219013 0.5209003
0001c0 44 a8 0f 3e 42 14 e4 3e 41 bf 01 3f aa bf c7 3e
       0.14029032 0.44546705 0.50682455 0.39013416
0001d0 e1 2a 8a 3d ee c6 41 be da eb 1a bd fd 99 bc bd
       0.0674646 -0.18923542 -0.03782258 -0.092090584
0001e0 fc 51 32 3f c3 f6 d3 3e ae dd b1 3e b6 32 e3 be
       0.6965635 0.41399202 0.3473944 -0.44374627
0001f0 c4 90 b0 bd c0 15 98 be 53 2f f0 3e 25 79 f0 be
       -0.08621362 -0.29704094 0.46911106 -0.46967426
000200 da b9 ac be 39 f4 04 bd 3c 0d dc 3e 53 f7 fd be
       -0.33735543 -0.03245947 0.42978847 -0.49602756
000210 a5 cc 6a be cf 98 c7 bd 54 d6 3e 3f ea f1 65 bd
       -0.22929628 -0.09745943 0.7454579 -0.05613891
000220 15 74 8c be a3 b1 8e be 3d 05 c8 be 07 4b be 3e
       -0.27432314 -0.278699 -0.39066496 0.37166616
000230 6f c8 a7 3e 07 47 ee be 15 f4 be be d9 74 72 bd
       0.32770106 -0.46538565 -0.37295595 -0.059193466
000240 2e fd 49 bf f1 60 77 be 50 dc 0e 3f 21 f4 97 3e
       -0.78901947 -0.24158074 0.5580492 0.29678443
000250 7a 6d 89 3e 89 51 5c bf 01 7e d3 bc 99 e8 ed 3d
       0.26841336 -0.8606191 -0.02581692 0.1161663
000260 ee bb 83 3f 78 d5 d2 bd 1a f3 31 be 19 70 f7 bc
       1.0291727 -0.10294622 -0.17377892 -0.03020482
000270 1b 48 15 3e 90 6f f6 3e d0 81 6e be 38 24 5e 3f
       0.14578287 0.4813199 -0.23291707 0.86774015
000280 a9 1d 1d bf 95 a7 cd be ce c3 dc be aa 3f 9e 3f
       -0.6137338 -0.40166917 -0.43118137 1.2363179
000290 af 89 8b 3e 18 cc 13 bd 00 25 4c 3f 52 3a 11 3f
       0.27253482 -0.03608331 0.7974396 0.56729615
0002a0 93 26 89 be 27 26 b3 be 61 f4 d6 be 2e 64 46 3e
       -0.26787242 -0.34990045 -0.4198332 0.19374153
0002b0 f7 f6 5c be 6d 6a 7f 3e 4d 60 9f be a8 cb 15 3f
       -0.21578585 0.24942942 -0.3112816 0.5851388
0002c0 f5 57 8d be 00 d7 f0 3e d2 16 86 3c 82 f4 85 3f
       -0.27606168 0.47039032 0.016368303 1.0465243
0002d0 15 3e 6e be cd 04 1a 3e 78 75 1d 3f 68 98 70 3f
       -0.2326587 0.15040894 0.6150737 0.93982553
0002e0 f5 c4 a0 3d 2b 28 32 3e 42 92 b0 bc 7c 74 86 bc
       0.078500666 0.17398135 -0.021554116 -0.016412966
0002f0 44 5a 15 3f 81 e6 6b bf 1a 4d d1 3e 2d b9 8a be
       0.5834086 -0.92148596 0.40879136 -0.27094403
000300 42 85 db 3e f0 fd 13 3e a3 fe 39 3f b5 96 93 3f
       0.42875105 0.14452338 0.7265417 1.1530367
000310 32 fe ef 3e 9a 1a 61 3f 6e db c6 3e 53 4d 45 3f
       0.46873623 0.87931216 0.38839287 0.7707111
000320 11 dc 28 3f 83 63 24 3c a4 2f c7 be 09 50 c2 be
       0.65960795 0.010033491 -0.38903534 -0.37951687
000330 41 1b 0a bf a0 e8 70 3f 0c 6f 9d be 9f cd 87 3e
       -0.53947836 0.9410496 -0.30748785 0.26524064
000340 57 8c a7 be b4 76 de be 47 43 7d 3f f7 0b 24 be
       -0.32724258 -0.43449938 0.9893078 -0.16020189
000350 1e f9 b8 bd db a6 bc bd 50 6e 03 3f 37 df 71 3f
       -0.0903189 -0.09211513 0.513402 0.94481224
000360 fa f0 97 be cd a5 6f 3e 6c 29 cb 3e 81 df 2b 3f
       -0.29676038 0.23403092 0.3968004 0.67137915
000370 74 ed 4d 3f 7c f1 bd be 3e b0 2f 3f fe 09 02 3d
       0.8044045 -0.370983 0.686283 0.03174781
000380 09 bd 0f 3e 4d 3d 8c 3e 35 0e 1f 3f 50 ad 19 3e
       0.14036955 0.2739052 0.62131053 0.1500752
000390 43 5b 03 bf dd d0 78 3d d9 cd cd be bb 6e bf 3d
       -0.5131113 0.060746063 -0.40196112 0.09347292
0003a0 b0 24 34 3f 9d 26 d5 be eb 7b d2 bd 43 0c 1f be
       0.7036848 -0.41631022 -0.10277542 -0.15532021
0003b0 40 75 ed 3e 75 de 66 bc be 0e d7 3c 05 e6 81 3f
       0.46378517 -0.014091124 0.026252147 1.0148321
0003c0 bd e1 07 be 6b fb 16 bf 00 b1 12 3f 9f bd cd bd
       -0.13269706 -0.58977383 0.5730133 -0.10045933
0003d0 62 33 18 3d 3c ac 56 3f 35 1d 29 bf a0 a2 a6 3c
       0.037158377 0.8385656 -0.6606019 0.020341218
0003e0 d7 0a 5c be b9 ec 09 be 26 63 5b bd 24 0e 29 be
       -0.2148851 -0.13469209 -0.053561352 -0.165093
0003f0 84 05 be 3b 0a 84 d6 3c 3f ca 09 be a4 6c c5 bc
       0.0057989974 0.026186008 -0.13456057 -0.024099655

l1.bias f4 [8]
000000 ac f0 1e 3f d0 9e 72 3f de 3d 70 3f 5e 1e 29 3f
       0.62085986 0.9477358 0.938444 0.6606196
000010 ca f2 40 3f 5c b3 8a 3f 2e 75 38 3f a6 38 16 3f
       0.75370467 1.0835986 0.720538 0.5868019

l2.weight f4 [8, 8]
000000 62 da f4 3e b2 82 c6 3f b6 65 c1 3f 79 d3 a3 3c
       0.47822863 1.5508635 1.5109165 0.019998299
000010 21 2f 63 3f c2 e6 c6 3d bb 08 9d bf 2b 16 6c be
       0.8874379 0.09711982 -1.2268289 -0.23055331
000020 4e 79 d4 3e ca b5 1a 3e fb 30 5f 3e 78 57 8f 3f
       0.41498798 0.1510841 0.21796028 1.1198568
000030 d9 36 ae 3f ef bc 2b 3f 03 04 df bf 96 a0 f3 3e
       1.3610488 0.67085165 -1.7423099 0.47583455
000040 b6 f5 e9 3e bc 69 e4 bd 90 17 2b bf ea f7 c8 3f
       0.45695275 -0.1115298 -0.6683283 1.5700657
000050 49 3c e2 3f 21 9a d1 3e 03 1c a0 3f 75 37 50 bf
       1.7674648 0.40937904 1.2508548 -0.8133462
000060 1b 90 e6 be bc 39 94 3f d0 2d ad bc 1a 94 d7 be
       -0.4503182 1.1580119 -0.02114001 -0.4210518
000070 da 7e 24 3f 96 41 bb 3f 2a 70 52 bf 7c 3b e7 3f
       0.6425606 1.462939 -0.822024 1.8065028
000080 e6 fc 3e bf 0a 3d c2 3f df 70 fc 3f 8f be df 3e
       -0.7460464 1.5174878 1.9721946 0.43700072
000090 d0 c5 64 bd 1e 87 36 3f ae 26 3b 3e 1b 28 ae bf
       -0.05585271 0.7129992 0.18276474 -1.3605989
0000a0 67 73 11 40 63 9a 57 3c 61 d4 64 3f bb f8 a8 3f
       2.2726686 0.013159367 0.89386564 1.3200907
0000b0 be b7 e3 3d 95 93 55 bf 2c 48 a8 3f ee 1a 1b 3f
       0.111190304 -0.8342832 1.3147025 0.60587966
0000c0 17 0a 49 3f 6e 9a b2 bf c3 d5 62 bf 86 aa ca 3f
       0.7853102 -1.3953378 -0.88607424 1.583329
0000d0 d3 03 ff 3f ee aa 64 3f 02 4f fd 3f c3 94 f9 3e
       1.9923042 0.8932332 1.9789736 0.4874631
0000e0 39 6e 3c 3f 2c 17 ba 3f 09 0a 63 bf 6f df c9 bd
       0.73605686 1.4538321 -0.8868719 -0.0985707
0000f0 93 6d ba bf f0 f5 b4 3f 78 71 91 3f b9 e8 d3 3f
       -1.4564689 1.4137554 1.1362753 1.6555396

l2.bias f4 [8]
000000 17 55 0e 3f 5c 5a b3 be cd 48 90 3d 53 f6 2b 3e
       0.55598587 -0.35029876 0.07045136 0.16793184
000010 44 d0 9f 3f 13 67 5f bf 56 2b 48 3f 05 4b 4f 3c
       1.2485433 -0.87266654 0.78191125 0.012652163

l3.weight f4 [14, 8]
000000 c4 3c 42 3e b7 73 3b bf a0 c8 64 bf 52 64 05 be
       0.18968493 -0.7322344 -0.8936863 -0.1302655
000010 08 18 64 be 00 68 66 3f d7 ef 7d bf 9c 7c f9 3e
       -0.22274792 0.9000244 -0.9919409 0.48727882
000020 b2 b1 d8 be 62 60 68 be 3d d4 d9 3e 37 dd a5 3d
       -0.4232307 -0.22693017 0.42544737 0.08098834
000030 3d 40 13 bf 85 23 e2 be 4e d2 19 3f cb 21 83 be
       -0.57519895 -0.44167724 0.60086524 -0.2561172
000040 9f 05 be bd a1 b5 9a bd df 10 96 bf 8e 65 39 3f
       -0.09278416 -0.07554174 -1.1723899 0.72420585
000050 5b 4f a8 3d 92 c1 cb bf 83 f8 d7 bf c6 55 5d 3f
       0.08218261 -1.5918448 -1.6872715 0.86459005
000060 c7 d4 63 3e 28 75 47 3f 55 d8 f0 be e3 71 c3 3e
       0.22249137 0.7791314 -0.47040048 0.38172826
000070 f2 3f a7 3e 53 79 63 be 96 d1 7f bf ec d1 42 bf
       0.32665974 -0.2221425 -0.9992918 -0.76101565
000080 12 82 4f bf 6d fe 04 c0 7a ea 1a 3f dc 5d a0 bf
       -0.81057847 -2.078029 0.6051403 -1.2528644
000090 ba ab ab bf b0 49 a3 3e c9 0c 60 3f bb cd 5f bf
       -1.3411782 0.31892157 0.8751951 -0.87423295
0000a0 96 2e 48 3e 31 af f1 bf c8 ff a3 be 4f 9b de bf
       0.19549021 -1.8881589 -0.32031083 -1.7391146
0000b0 6d 7f 63 3f 50 3e 03 3f 41 3a 20 bf d0 f2 06 c0
       0.8886631 0.51266956 -0.6258889 -2.10857
0000c0 7b 09 61 3f 44 ac cb be 41 6f 5e bf c9 a2 34 3f
       0.8790509 -0.39779866 -0.8688851 0.7056089
0000d0 dc 73 98 3f 16 b5 1b c0 e2 37 db bf b4 17 18 c0
       1.1910357 -2.4329276 -1.7126429 -2.3764467
0000e0 9c 81 aa 3e 45 3b 1e c0 cc d9 98 3e 83 b9 89 be
       0.3330201 -2.4723675 0.29853666 -0.26899347
0000f0 18 8a 63 3f 9f 05 b1 bf 1c d5 2d bf 31 fe ef 3e
       0.8888259 -1.382984 -0.67903304 0.4687362
000100 5b 24 9e be 0a 4a 7f 3f ef 63 3b be 73 4a f2 3e
       -0.30887112 0.9972235 -0.1829984 0.47322425
000110 bd 7c 18 bf 24 ee fd bf a6 00 33 be c1 f8 81 3e
       -0.59565336 -1.98383 -0.17480716 0.25385097
000120 b2 df ed 3e 34 e6 60 3f 18 f7 07 3e 85 08 c9 be
       0.46459728 0.8785126 0.13277853 -0.39264312
000130 2c f2 41 bf e1 36 b9 3e 31 62 40 bd 50 e3 e0 bf
       -0.7576015 0.36174682 -0.046968643 -1.756937
000140 9d 85 8a bf b4 86 67 bf 7e 76 a6 bf 47 1e 3c 3f
       -1.0822026 -0.90439916 -1.3004911 0.734837
000150 20 40 8b bf 47 fb c8 bf 55 ab d4 3e 14 e9 33 3f
       -1.0878944 -1.5701684 0.41536966 0.70277524
000160 b9 31 e3 be 28 84 45 bf 13 48 91 3e 02 0e 02 c0
       -0.44373873 -0.7715478 0.283753 -2.032105
000170 55 78 ef 3e 5a be 10 3f 98 63 d6 3e d7 d4 6b bf
       0.46771494 0.56540453 0.4187286 -0.9212164
000180 73 c7 8e bf be 2d 04 c0 de ec 9c bd 9b 72 e1 3d
       -1.1154617 -2.065292 -0.07662366 0.110081874
000190 74 c4 b3 bf b7 73 63 3e ac f3 a0 3e 50 06 03 3f
       -1.4044328 0.2221211 0.31435907 0.5118151
0001a0 cd d3 48 3d 45 f8 13 3f a0 6e 9f 3e 38 c0 c1 be
       0.049030114 0.57800704 0.31139088 -0.37841964
0001b0 5e 58 02 3f 75 eb 17 c0 2e 29 64 3f 22 c6 0f c0
       0.5091609 -2.3737462 0.89125335 -2.246468

l3.bias f4 [14]
000000 1c 48 7f bc 65 ad 73 3e c6 66 c8 be 61 ec 4a bf
       -0.015581157 0.23796614 -0.3914091 -0.79266936
000010 db 8a 57 3d 8d eb 46 be 45 12 d8 3e e6 5f fa 3e
       0.052622657 -0.19425793 0.4220144 0.4890129
000020 74 b2 01 bf 84 dd 24 bf 41 8e af 3b 89 4b 90 be
       -0.5066292 -0.64400506 0.005357534 -0.2818263
000030 18 d5 05 bd 32 84 93 3e
       -0.032673925 0.28811795
