data.pth (torch, 6303 bytes, 6 tensors)

l1.weight f4 [8, 71]
0.42274016 0.8392438 -0.63852894 0.61429286 0.6788106 -0.6386759 0.30770242 0.3776947
-0.49442017 0.42953348 0.45498443 0.8131093 0.4297507 0.5322468 0.33884597 0.58071584
0.6783837 0.7143267 -0.35765353 0.3015525 0.59552115 0.61013716 0.38872504 -0.41581273
0.49961782 0.4521445 0.43083274 0.5305284 0.46341425 0.753996 1.0464456 0.695488
0.3117439 0.21693532 0.7812654 0.24745673 0.71721625 -0.31896108 -0.42378655 0.49437565
0.60460645 0.4293758 0.7762612 0.6070813 0.5421823 0.21188329 0.8026188 0.46916342
0.24042352 0.45826605 -0.17005733 0.46314391 0.49666926 -0.18352526 0.5407101 0.79531884
0.5031614 1.163644 0.352364 0.2845271 0.4495851 0.41404635 -0.76188874 -0.2567079
0.5397104 1.2621403 0.12777075 -0.63705385 0.4435886 -0.1760202 0.69206595 0.55688596
0.036171682 0.21316797 0.59330606 -0.69479686 -0.48821047 -0.14232166 0.22012322 0.69863
0.32290047 0.39325437 0.63636947 -0.09425084 0.5196365 -0.16830255 -0.13193668 0.053340215
-0.08203103 -0.16362597 -0.48978594 -0.30233896 -0.27045828 -0.31988385 0.609457 -0.45780215
-0.4883911 0.39058343 -0.4881774 -0.4883892 0.97798544 -0.8945368 0.2011819 -0.11008563
-0.1602214 -0.23791702 -0.1514267 -0.44134003 0.27005047 -0.15645887 -0.0035818827 0.075641796
0.09000398 0.37478015 0.001973198 -0.21295288 -0.30335307 0.59405065 0.8722413 0.51209444
0.31895816 0.3171934 -0.49845794 0.096791506 -0.026345054 -0.25346595 0.2964051 0.06572173
0.86608785 0.4834321 -0.2928869 -0.4882079 -0.07434709 0.41991588 0.2498752 0.7904621
-0.9705971 -0.27421182 0.14831328 0.41212887 0.4246115 0.3221999 0.15045358 0.50614744
0.5804443 -0.47457474 -0.4524858 -0.23762938 0.43853223 0.17733914 0.81941575 -0.4069625
-0.31949043 -0.6269819 -0.08853758 -0.37445736 0.31397015 -0.30319962 -0.31935868 -0.214716
0.149789 -0.68899417 0.55161047 -0.24775471 0.26742822 0.92764777 -0.31194347 0.47758996
0.095880985 0.39786106 0.4817251 0.6399615 0.113081135 -0.36398098 0.31894958 -0.06838176
0.49526414 -0.11203465 0.4176466 0.5394217 0.14923382 0.16557191 -0.28653523 0.08966637
-0.4324456 0.78066456 -0.31857097 -0.19444244 -0.6274373 0.16285224 -0.106984936 -0.16180168
0.4629448 -0.46950883 -0.30112112 -0.038164243 0.5690477 -0.31216788 0.6476345 -0.45472133
0.015516095 0.04360312 -0.560502 -0.07448548 -0.700389 0.49468762 0.5507878 -0.92919517
-0.048101764 0.6713046 -0.01642832 0.46636137 0.04845417 0.2062827 -0.21600807 -0.40132153
-0.3522842 -0.64042014 1.1154811 -0.28193784 -0.43584815 0.6627495 -0.09284362 -0.46509302
-0.030796766 0.06568171 -0.23707214 -0.2036535 0.34541005 0.46696472 0.3581463 0.57516545
0.10720927 -0.091277964 0.34692493 -0.21118392 0.5831075 0.5542397 -0.41459858 0.28135175
-0.41440046 -0.414546 -0.18387964 0.13524276 0.10102071 -0.29139388 0.37049636 -0.31761125
0.271589 -0.20908685 0.59860134 0.6062183 -0.30034977 0.5239931 0.097505756 -0.39037362
00000000: 6671 d83e afd8 563f a276 23bf 4c42 1d3f
00000010: 88c6 2d3f 4480 23bf 2c8b 9d3e 3361 c13e
00000020: a424 fdbe d0eb db3e b8f3 e83e ee27 503f
00000030: 4908 dc3e 5441 083f 387d ad3e cba9 143f
00000040: 8eaa 2d3f 1dde 363f 5d1e b7be 1765 9a3e
00000050: 1374 183f f331 1c3f f806 c73e 68e5 d4be
00000060: e8cd ff3e 7c7f e73e 1c96 dc3e b6d0 073f
00000070: a244 ed3e e205 413f eef1 853f 800b 323f
00000080: e59c 9f3e 4b24 5e3e 0201 483f 4c65 7d3e
00000090: 7c9b 373f de4e a3be 8dfa d8be ce1e fd3e
000000a0: 7dc7 1a3f 25d7 db3e 0eb9 463f ae69 1b3f
000000b0: 76cc 0a3f eff7 583e 6d78 4d3f 3036 f03e
000000c0: 9531 763e d9a1 ea3e 8223 2ebe 3321 ed3e
000000d0: 6f4b fe3e 0cee 3bbe fa6b 0a3f 049a 4b3f
000000e0: 2fcf 003f 49f2 943f 0e69 b43e 89ad 913e
000000f0: 0530 e63e e2fd d33e 240b 43bf 386f 83be
00000100: 762a 0a3f d08d a13f 56d6 023e f615 23bf
00000110: 0c1e e33e a43e 34be 3c2b 313f 1490 0e3f
00000120: c228 143d b448 5a3e e8e2 173f 35de 31bf
00000130: b9f6 f9be c5bc 11be fb67 613e 6ad9 323f
00000140: 3653 a53e a358 c93e 1ce9 223f 9606 c1bd
00000150: e606 053f 8157 2cbe 691a 07be 457b 5a3d
00000160: e2ff a7bd 918d 27be 39c5 fabe 2ccc 9abe
00000170: 8279 8abe d1c7 a3be 6005 1c3f 0b65 eabe
00000180: 660e fabe 8dfa c73e 63f2 f9be 260e fabe
00000190: 415d 7a3f 5d00 65bf a102 4e3e 9374 e1bd
000001a0: 1411 24be 85a0 73be 9a0f 1bbe 52f7 e1be
000001b0: 0e44 8a3e c136 20be 05be 6abb 16ea 9a3d
000001c0: 0254 b83d 2fe3 bf3e c550 013b 5210 5abe
000001d0: 1851 9bbe b413 183f 354b 5f3f 9f18 033f
000001e0: 7c4e a33e 2c67 a23e e135 ffbe a03a c63d
000001f0: 95d1 d7bc 4ac6 81be 69c2 973e 1d99 863d
00000200: efb7 5d3f 6a84 f73e 46f5 95be 63f6 f9be
00000210: 4a43 98bd 37ff d63e 49df 7f3e b95b 4a3f
00000220: 0d79 78bf 7e65 8cbe 70df 173e 8e02 d33e
00000230: ae66 d93e 63f7 a43e 8110 1a3e e192 013f
00000240: ff97 143f 76fb f2be 38ac e7be 1e55 73be
00000250: 4c87 e03e 6498 353e 3bc5 513f 645d d0be
00000260: 4094 a3be e381 20bf 3153 b5bd e0b8 bfbe
00000270: b2c0 a03e fb3c 9bbe fb82 a3be 83de 5bbe
00000280: 4a62 193e ec61 30bf 5836 0d3f 69b3 7dbe
00000290: 5aec 883e 537a 6d3f 0eb7 9fbe ac86 f43e
000002a0: 405d c43d 72b4 cb3e aca4 f63e 84d4 233f
000002b0: 1597 e73d b75b babe 5c4d a33e bc0b 8cbd
000002c0: 4393 fd3e 6c72 e5bd c6d5 d53e 8a17 0a3f
000002d0: c0d0 183e af8b 293e bfb4 92be 00a3 b73d
000002e0: 8269 ddbe a2d9 473f bc1b a3be eb1b 47be
000002f0: bb9f 20bf bdc2 263e eb1a dbbd 57af 25be
00000300: 1a07 ed3e 7663 f0be 8c2c 9abe 1c52 1cbd
00000310: 1cad 113f 78d4 9fbe 60cb 253f 3cd1 e8be
00000320: 3837 7e3c 2f99 323d 0f7d 0fbf d88b 98bd
00000330: b24c 33bf b247 fd3e 6e00 0d3f bcdf 6dbf
00000340: 5b06 45bd 9eda 2b3f af94 86bc ebc6 ee3e
00000350: e177 463d c63b 533e 3831 5dbe 047a cdbe
00000360: 985e b4be 93f2 23bf 16c8 8e3f 285a 90be
00000370: 7d27 dfbe f4a9 293f cc24 bebd ac20 eebe
00000380: 8049 fcbc 2284 863d 0ac3 72be 8b8a 50be
00000390: 96d9 b03e 0016 ef3e f45e b73e 0b3e 133f
000003a0: 8990 db3d f1ef babd 25a0 b13e 9940 58be
000003b0: 8846 153f a7e2 0d3f 4446 d4be 560d 903e
000003c0: 4c2c d4be 603f d4be f24a 3cbe 147d 0a3e
000003d0: f2e3 ce3d 9431 95be b3b1 bd3e f19d a2be
000003e0: b70d 8b3e dd1a 56be f03d 193f 1f31 1b3f
000003f0: 72c7 99be 6924 063f 19b1 c73d 0ddf c7be

l1.bias f4 [8]
0.63862777 0.4881796 1.0016946 0.41429296 0.55873066 0.5607903 0.7130276 1.1388589
00000000: 1c7d 233f adf2 f93e 8737 803f 351e d43e
00000010: f908 0f3f f48f 0f3f fa88 363f 21c6 913f

l2.weight f4 [8, 8]
0.85795456 1.2868038 0.9308092 -0.15700935 -1.2974745 0.9168532 -0.94037724 0.25374115
1.5850059 -0.9945006 -1.073818 -0.23997822 -0.25057372 0.9725765 0.08743415 1.4940461
0.26017255 -1.0186151 1.6217304 -0.83339447 -0.19601746 -0.48257074 0.2463097 1.2056233
1.4675468 0.79333055 0.24951157 0.766804 1.0988305 1.4909457 0.7951675 -1.4957044
-0.42013994 -0.48739573 0.77167356 1.3177125 1.7476553 1.6356134 -0.20172946 0.67657447
-1.079329 1.8095037 0.88607264 -0.5692491 0.62275106 -0.8825782 1.5296514 0.747421
0.7910881 0.76935315 -0.5213239 -1.121431 0.1717072 -0.6440258 1.3751096 0.62727493
1.0444796 -0.12526627 1.2158693 -1.2087405 -1.0576683 -0.7749178 0.2919455 0.607181
00000000: e9a2 5b3f fdb5 a43f 8349 6e3f 0fc7 20be
00000010: a513 a6bf e4b6 6a3f 90bc 70bf 5cea 813e
00000020: 79e1 ca3f 9797 7ebf de72 89bf dabc 75be
00000030: 334b 80be c6fa 783f ad10 b33d e73c bf3f
00000040: 5635 853e fb61 82bf dd94 cf3f 5759 55bf
00000050: cdb8 48be 8313 f7be 9c38 7c3e dd51 9a3f
00000060: 93d8 bb3f b617 4b3f f67f 7f3e 444d 443f
00000070: 7aa6 8c3f 4fd7 be3f 1990 4b3f 3e73 bfbf
00000080: 951c d7be ef8b f9be 668c 453f ceaa a83f
00000090: 2bb3 df3f c85b d13f 2b92 4ebe fc33 2d3f
000000a0: 7427 8abf d19d e73f a8d5 623f 4fba 11bf
000000b0: 9d6c 1f3f a5f0 61bf 9ecb c33f fc56 3f3f
000000c0: c084 4a3f 54f4 443f 7c75 05bf 0d8b 8fbf
000000d0: 03d4 2f3e e0de 24bf 9703 b03f 1795 203f
000000e0: 82b1 853f cd45 00be 9ba1 9b3f 02b8 9abf
000000f0: ad61 87bf 0361 46bf e179 953e 3770 1b3f

l2.bias f4 [8]
0.1925232 0.21179402 0.77142006 0.05137006 0.7051007 0.31197855 -0.025733026 0.67912525
00000000: cd24 453e 88e0 583e c97b 453f 6969 523d
00000010: 7b81 343f a7bb 9f3e 11ce d2bc 27db 2d3f

l3.weight f4 [12, 8]
-1.0358704 -0.81613445 0.7081512 -1.2454301 -0.011207358 0.7485795 0.10928105 0.26057428
-2.172243 0.5191407 0.21894908 -0.08667618 -0.21467015 -0.34593615 0.4231785 0.05788828
-1.822151 -1.2315346 -1.0005383 0.42180136 1.0407319 -1.335772 -0.90641165 -0.4858543
-1.0330389 0.19298191 -1.0769918 0.7574418 -0.19950049 -1.2996435 -0.20680474 -0.76043993
0.40953234 -0.67065734 0.47529247 0.29541212 -0.77521616 -1.6573099 -0.5627471 0.7475669
-0.12639053 -1.5136455 0.18883255 -0.034274053 0.44900787 0.5139871 -2.4672544 -0.4299137
0.39919233 0.42649513 0.78289276 -1.7464511 -0.29189077 -0.5575192 -0.60462505 0.5833484
0.015346798 -1.1199951 -0.03745766 0.3157646 -1.0625486 0.3546869 0.032369837 0.124374315
-0.23568375 0.6985392 -0.03822649 -0.56482214 0.64962405 -0.8166084 -1.1719549 -1.0393747
-1.3686016 -1.1304088 -1.2035998 0.36219668 -0.07089034 0.35941207 0.3622108 -1.3210924
-0.4380911 0.2962618 -0.3093629 -0.48270866 -1.8420199 0.22706759 0.7344634 0.42893267
1.2542024 -0.053259872 -1.1471989 0.30794165 -0.18165195 -0.71306807 -1.1022105 -0.2799946
00000000: 6797 84bf 30ee 50bf 6649 353f 416a 9fbf
00000010: 119f 37bc e8a2 3f3f bece df3d fe69 853e
00000020: 0806 0bc0 68e6 043f 3034 603e 4883 b1bd
00000030: 7ed2 5bbe 8b1e b1be daaa d83e 431c 6d3d
00000040: 3e3c e9bf eda2 9dbf a411 80bf 59f6 d73e
00000050: b436 853f 94fa aabf 980a 68bf e5c1 f8be
00000060: 9e3a 84bf 0d9d 453e deda 89bf b5e7 413f
00000070: db49 4cbe b85a a6bf 9fc4 53be 31ac 42bf
00000080: 39ae d13e 33b0 2bbf 8959 f33e 4240 973e
00000090: 9174 46bf bb22 d4bf 3210 10bf 8b60 3f3f
000000a0: 856c 01be 23bf c1bf 525d 413e f362 0cbd
000000b0: 5ce4 e53e a994 033f 7fe7 1dc0 a61d dcbe
000000c0: f062 cc3e 925d da3e a96b 483f b68b dfbf
000000d0: b572 95be 94b9 0ebf b5c8 1abf 5256 153f
000000e0: 2371 7b3c 005c 8fbf 346d 19bd e6ab a13e
000000f0: 9801 88bf 8599 b53e 3c96 043d f6b7 fe3d
00000100: 1557 71be 77d3 323f 6193 1cbd 2f98 10bf
00000110: c34d 263f 400d 51bf 9e02 96bf 3b0a 85bf
00000120: 562e afbf 3cb1 90bf 8f0f 9abf d871 b93e
00000130: f42e 91bd dc04 b83e b273 b93e 8e19 a9bf
00000140: 7a4d e0be a0af 973e d064 9ebe 9725 f7be
00000150: 4fc7 ebbf 6884 683e cb05 3c3f 109d db3e
00000160: b489 a03f 0627 5abd 6ad7 92bf 87aa 9d3e
00000170: f802 3abe a18b 36bf 3c15 8dbf 745b 8fbe

l3.bias f4 [12]
-0.13535886 -0.3061139 0.3545876 0.115973026 -0.41684487 0.20235197 0.13085464 -0.5049005
-0.3075697 -0.0039379355 -0.2271823 0.29947254
00000000: 839b 0abe f6ba 9cbe 828c b53e 4483 ed3d
00000010: b16c d5be 5b35 4f3e c2fe 053e 2941 01bf
00000020: c779 9dbe cc09 81bb 7aa2 68be 7754 993e
